…
WARNING:tensorflow:From C:\Users\ASUS\venv\lib\site-packages\keras\src\layers\rnn\lstm.py:148: The name tf.executing_eagerly_outside_functions is deprecated. Please use tf.compat.v1.executing_eagerly_outside_functions instead.

2026-06-07 15:05:28.977786: I tensorflow/core/platform/cpu_feature_guard.cc:182] This TensorFlow binary is optimized to use available CPU instructions in performance-critical operations.
To enable the following instructions: SSE SSE2 SSE3 SSE4.1 SSE4.2 AVX2 FMA, in other operations, rebuild TensorFlow with the appropriate compiler flags.
Model: "sequential"
_________________________________________________________________
 Layer (type)                Output Shape              Param #
=================================================================
 bidirectional (Bidirection  (None, 60, 256)           261120
 al)

 batch_normalization (Batch  (None, 60, 256)           1024
 Normalization)

 dropout (Dropout)           (None, 60, 256)           0

 lstm_1 (LSTM)               (None, 60, 64)            82176

 batch_normalization_1 (Bat  (None, 60, 64)            256
 chNormalization)

 dropout_1 (Dropout)         (None, 60, 64)            0

 lstm_2 (LSTM)               (None, 32)                12416

 batch_normalization_2 (Bat  (None, 32)                128
 chNormalization)

 dropout_2 (Dropout)         (None, 32)                0

 dense (Dense)               (None, 64)                2112

 dropout_3 (Dropout)         (None, 64)                0

 dense_1 (Dense)             (None, 5)                 325

=================================================================
Total params: 359557 (1.37 MB)
Trainable params: 358853 (1.37 MB)
Non-trainable params: 704 (2.75 KB)
_________________________________________________________________

Mulai training...

Epoch 1/100
WARNING:tensorflow:From C:\Users\ASUS\venv\lib\site-packages\keras\src\utils\tf_utils.py:492: The name tf.ragged.RaggedTensorValue is deprecated. Please use tf.compat.v1.ragged.RaggedTensorValue instead.
…
